…
[["weight", [16, 3, 3, 3]], ["bias", [16]]], "output_shape": [[32, 16, 16, 16]], "num_parameters": [432, 16]}, {"name": "input_conv.1", "id": 2233799797000, "class_name": "Hswish()", "parameters": [], "output_shape": [[32, 16, 16, 16]], "num_parameters": []}, {"name": "input_conv.2", "id": 2233799795912, "class_name": "BatchNorm2d(16, eps=1e-05, momentum=0.1, affine=True, track_running_stats=True)", "parameters": [["weight", [16]], ["bias", [16]]], "output_shape": [[32, 16, 16, 16]], "num_parameters": [16, 16]}, {"name": "fuse_blocks.0", "id": 2233799798280, "class_name": "FuseBlock(\n  (conv1): Conv2d(16, 16, kernel_size=(1, 1), stride=(1, 1), bias=False)\n  (conv2): Conv2d(32, 16, kernel_size=(1, 1), stride=(1, 1), bias=False)\n  (depth_conv1): Conv2d(16, 16, kernel_size=(1, 3), stride=(2, 2), padding=(0, 1), groups=16, bias=False)\n  (depth_conv2): Conv2d(16, 16, kernel_size=(3, 1), stride=(2, 2), padding=(1, 0), groups=16, bias=False)\n  (se_layer): SEModule(\n    (avg_pool): AdaptiveAvgPool2d(output_size=1)\n    (fc): Sequential(\n      (0): Linear(in_features=32, out_features=8, bias=False)\n      (1): ReLU(inplace=True)\n      (2): Linear(in_features=8, out_features=32, bias=False)\n      (3): Hsigmoid()\n    )\n  )\n  (hsigmoid): Hsigmoid()\n  (conv_bn1): BatchNorm2d(16, eps=1e-05, momentum=0.1, affine=True, track_running_stats=True)\n  (conv_bn2): BatchNorm2d(16, eps=1e-05, momentum=0.1, affine=True, track_running_stats=True)\n  (dw_conv_bn1): BatchNorm2d(16, eps=1e-05, momentum=0.1, affine=True, track_running_stats=True)\n  (dw_conv_bn2): BatchNorm2d(16, eps=1e-05, momentum=0.1, affine=True, track_running_stats=True)\n  (nonlinearity): ReLU()\n)", "parameters": [["conv1.weight", [16, 16, 1, 1]], ["conv2.weight", [16, 32, 1, 1]], ["depth_conv1.weight", [16, 1, 1, 3]], ["depth_conv2.weight", [16, 1, 3, 1]], ["se_layer.fc.0.weight", [8, 32]], ["se_layer.fc.2.weight", [32, 8]], ["conv_bn1.weight", [16]], ["conv_bn1.bias", [16]], ["conv_bn2.weight", [16]], ["conv_bn2.bias", [16]], ["dw_conv_bn1.weight", [16]], ["dw_conv_bn1.bias", [16]], ["dw_conv_bn2.weight", [16]], ["dw_conv_bn2.bias", [16]]], "output_shape": [[32, 16, 8, 8]], "num_parameters": [256, 512, 48, 48, 256, 256, 16, 16, 16, 16, 16, 16, 16, 16]}, {"name": "fuse_blocks.1", "id": 2233799839880, "class_name": "FuseBlock(\n  (conv1): Conv2d(16, 72, kernel_size=(1, 1), stride=(1, 1), bias=False)\n  (conv2): Conv2d(144, 24, kernel_size=(1, 1), stride=(1, 1), bias=False)\n  (depth_conv1): Conv2d(72, 72, kernel_size=(1, 3), stride=(2, 2), padding=(0, 1), groups=72, bias=False)\n  (depth_conv2): Conv2d(72, 72, kernel_size=(3, 1), stride=(2, 2), padding=(1, 0), groups=72, bias=False)\n  (conv_bn1): BatchNorm2d(72, eps=1e-05, momentum=0.1, affine=True, track_running_stats=True)\n  (conv_bn2): BatchNorm2d(24, eps=1e-05, momentum=0.1, affine=True, track_running_stats=True)\n  (dw_conv_bn1): BatchNorm2d(72, eps=1e-05, momentum=0.1, affine=True, track_running_stats=True)\n  (dw_conv_bn2): BatchNorm2d(72, eps=1e-05, momentum=0.1, affine=True, track_running_stats=True)\n  (nonlinearity): ReLU()\n)", "parameters": [["conv1.weight", [72, 16, 1, 1]], ["conv2.weight", [24, 144, 1, 1]], ["depth_conv1.weight", [72, 1, 1, 3]], ["depth_conv2.weight", [72, 1, 3, 1]], ["conv_bn1.weight", [72]], ["conv_bn1.bias", [72]], ["conv_bn2.weight", [24]], ["conv_bn2.bias", [24]], ["dw_conv_bn1.weight", [72]], ["dw_conv_bn1.bias", [72]], ["dw_conv_bn2.weight", [72]], ["dw_conv_bn2.bias", [72]]], "output_shape": [[32, 24, 4, 4]], "num_parameters": [1152, 3456, 216, 216, 72, 72, 24, 24, 72, 72, 72, 72]}, {"name": "fuse_blocks.2", "id": 2233799817992, "class_name": "FuseBlock(\n  (conv1): Conv2d(24, 88, kernel_size=(1, 1), stride=(1, 1), bias=False)\n  (conv2): Conv2d(176, 24, kernel_size=(1, 1), stride=(1, 1), bias=False)\n  (depth_conv1): Conv2d(88, 88, kernel_size=(1, 3), stride=(1, 1), padding=(0, 1), groups=88, bias=False)\n  (depth_conv2): Conv2d(88, 88, kernel_size=(3, 1), stride=(1, 1), padding=(1, 0), groups=88, bias=False)\n  (conv_bn1): BatchNorm2d(88, eps=1e-05, momentum=0.1, affine=True, track_running_stats=True)\n  (conv_bn2): BatchNorm2d(24, eps=1e-05, momentum=0.1, affine=True, track_running_stats=True)\n  (dw_conv_bn1): BatchNorm2d(88, eps=1e-05, momentum=0.1, affine=True, track_running_stats=True)\n  (dw_conv_bn2): BatchNorm2d(88, eps=1e-05, momentum=0.1, affine=True, track_running_stats=True)\n  (nonlinearity): ReLU()\n)", "parameters": [["conv1.weight", [88, 24, 1, 1]], ["conv2.weight", [24, 176, 1, 1]], ["depth_conv1.weight", [88, 1, 1, 3]], ["depth_conv2.weight", [88, 1, 3, 1]], ["conv_bn1.weight", [88]], ["conv_bn1.bias", [88]], ["conv_bn2.weight", [24]], ["conv_bn2.bias", [24]], ["dw_conv_bn1.weight", [88]], ["dw_conv_bn1.bias", [88]], ["dw_conv_bn2.weight", [88]], ["dw_conv_bn2.bias", [88]]], "output_shape": [[32, 24, 4, 4]], "num_parameters": [2112, 4224, 264, 264, 88, 88, 24, 24, 88, 88, 88, 88]}, {"name": "fuse_blocks.3", "id": 2233799786760, "class_name": "FuseBlock(\n  (conv1): Conv2d(24, 96, kernel_size=(1, 1), stride=(1, 1), bias=False)\n  (conv2): Conv2d(192, 40, kernel_size=(1, 1), stride=(1, 1), bias=False)\n  (depth_conv1): Conv2d(96, 96, kernel_size=(1, 5), stride=(2, 2), padding=(0, 2), groups=96, bias=False)\n  (depth_conv2): Conv2d(96, 96, kernel_size=(5, 1), stride=(2, 2), padding=(2, 0), groups=96, bias=False)\n  (se_layer): SEModule(\n    (avg_pool): AdaptiveAvgPool2d(output_size=1)\n    (fc): Sequential(\n      (0): Linear(in_features=192, out_features=48, bias=False)\n      (1): ReLU(inplace=True)\n      (2): Linear(in_features=48, out_features=192, bias=False)\n      (3): Hsigmoid()\n    )\n  )\n  (hsigmoid): Hsigmoid()\n  (conv_bn1): BatchNorm2d(96, eps=1e-05, momentum=0.1, affine=True, track_running_stats=True)\n  (conv_bn2): BatchNorm2d(40, eps=1e-05, momentum=0.1, affine=True, track_running_stats=True)\n  (dw_conv_bn1): BatchNorm2d(96, eps=1e-05, momentum=0.1, affine=True, track_running_stats=True)\n  (dw_conv_bn2): BatchNorm2d(96, eps=1e-05, momentum=0.1, affine=True, track_running_stats=True)\n  (nonlinearity): Hswish()\n)", "parameters": [["conv1.weight", [96, 24, 1, 1]], ["conv2.weight", [40, 192, 1, 1]], ["depth_conv1.weight", [96, 1, 1, 5]], ["depth_conv2.weight", [96, 1, 5, 1]], ["se_layer.fc.0.weight", [48, 192]], ["se_layer.fc.2.weight", [192, 48]], ["conv_bn1.weight", [96]], ["conv_bn1.bias", [96]], ["conv_bn2.weight", [40]], ["conv_bn2.bias", [40]], ["dw_conv_bn1.weight", [96]], ["dw_conv_bn1.bias", [96]], ["dw_conv_bn2.weight", [96]], ["dw_conv_bn2.bias", [96]]], "output_shape": [[32, 40, 2, 2]], "num_parameters": [2304, 7680, 480, 480, 9216, 9216, 96, 96, 40, 40, 96, 96, 96, 96]}, {"name": "fuse_blocks.4", "id": 2233799892680, "class_name": "FuseBlock(\n  (conv1): Conv2d(40, 240, kernel_size=(1, 1), stride=(1, 1), bias=False)\n  (conv2): Conv2d(480, 40, kernel_size=(1, 1), stride=(1, 1), bias=False)\n  (depth_conv1): Conv2d(240, 240, kernel_size=(1, 5), stride=(1, 1), padding=(0, 2), groups=240, bias=False)\n  (depth_conv2): Conv2d(240, 240, kernel_size=(5, 1), stride=(1, 1), padding=(2, 0), groups=240, bias=False)\n  (se_layer): SEModule(\n    (avg_pool): AdaptiveAvgPool2d(output_size=1)\n    (fc): Sequential(\n      (0): Linear(in_features=480, out_features=120, bias=False)\n      (1): ReLU(inplace=True)\n      (2): Linear(in_features=120, out_features=480, bias=False)\n      (3): Hsigmoid()\n    )\n  )\n  (hsigmoid): Hsigmoid()\n  (conv_bn1): BatchNorm2d(240, eps=1e-05, momentum=0.1, affine=True, track_running_stats=True)\n  (conv_bn2): BatchNorm2d(40, eps=1e-05, momentum=0.1, affine=True, track_running_stats=True)\n  (dw_conv_bn1): BatchNorm2d(240, eps=1e-05, momentum=0.1, affine=True, track_running_stats=True)\n  (dw_conv_bn2): BatchNorm2d(240, eps=1e-05, momentum=0.1, affine=True, track_running_stats=True)\n  (nonlinearity): Hswish()\n)", "parameters": [["conv1.weight", [240, 40, 1, 1]], ["conv2.weight", [40, 480, 1, 1]], ["depth_conv1.weight", [240, 1, 1, 5]], ["depth_conv2.weight", [240, 1, 5, 1]], ["se_layer.fc.0.weight", [120, 480]], ["se_layer.fc.2.weight", [480, 120]], ["conv_bn1.weight", [240]], ["conv_bn1.bias", [240]], ["conv_bn2.weight", [40]], ["conv_bn2.bias", [40]], ["dw_conv_bn1.weight", [240]], ["dw_conv_bn1.bias", [240]], ["dw_conv_bn2.weight", [240]], ["dw_conv_bn2.bias", [240]]], "output_shape": [[32, 40, 2, 2]], "num_parameters": [9600, 19200, 1200, 1200, 57600, 57600, 240, 240, 40, 40, 240, 240, 240, 240]}, {"name": "fuse_blocks.5", "id": 2233800109192, "class_name": "FuseBlock(\n  (conv1): Conv2d(40, 240, kernel_size=(1, 1), stride=(1, 1), bias=False)\n  (conv2): Conv2d(480, 40, kernel_size=(1, 1), stride=(1, 1), bias=False)\n  (depth_conv1): Conv2d(240, 240, kernel_size=(1, 5), stride=(1, 1), padding=(0, 2), groups=240, bias=False)\n  (depth_conv2): Conv2d(240, 240, kernel_size=(5, 1), stride=(1, 1), padding=(2, 0), groups=240, bias=False)\n  (se_layer): SEModule(\n    (avg_pool): AdaptiveAvgPool2d(output_size=1)\n    (fc): Sequential(\n      (0): Linear(in_features=480, out_features=120, bias=False)\n      (1): ReLU(inplace=True)\n      (2): Linear(in_features=120, out_features=480, bias=False)\n      (3): Hsigmoid()\n    )\n  )\n  (hsigmoid): Hsigmoid()\n  (conv_bn1): BatchNorm2d(240, eps=1e-05, momentum=0.1, affine=True, track_running_stats=True)\n  (conv_bn2): BatchNorm2d(40, eps=1e-05, momentum=0.1, affine=True, track_running_stats=True)\n  (dw_conv_bn1): BatchNorm2d(240, eps=1e-05, momentum=0.1, affine=True, track_running_stats=True)\n  (dw_conv_bn2): BatchNorm2d(240, eps=1e-05, momentum=0.1, affine=True, track_running_stats=True)\n  (nonlinearity): Hswish()\n)", "parameters": [["conv1.weight", [240, 40, 1, 1]], ["conv2.weight", [40, 480, 1, 1]], ["depth_conv1.weight", [240, 1, 1, 5]], ["depth_conv2.weight", [240, 1, 5, 1]], ["se_layer.fc.0.weight", [120, 480]], ["se_layer.fc.2.weight", [480, 120]], ["conv_bn1.weight", [240]], ["conv_bn1.bias", [240]], ["conv_bn2.weight", [40]], ["conv_bn2.bias", [40]], ["dw_conv_bn1.weight", [240]], ["dw_conv_bn1.bias", [240]], ["dw_conv_bn2.weight", [240]], ["dw_conv_bn2.bias", [240]]], "output_shape": [[32, 40, 2, 2]], "num_parameters": [9600, 19200, 1200, 1200, 57600, 57600, 240, 240, 40, 40, 240, 240, 240, 240]}, {"name": "fuse_blocks.6", "id": 2233800170504, "class_name": "FuseBlock(\n  (conv1): Conv2d(40, 120, kernel_size=(1, 1), stride=(1, 1), bias=False)\n  (conv2): Conv2d(240, 48, kernel_size=(1, 1), stride=(1, 1), bias=False)\n  (depth_conv1): Conv2d(120, 120, kernel_size=(1, 5), stride=(1, 1), padding=(0, 2), groups=120, bias=False)\n  (depth_conv2): Conv2d(120, 120, kernel_size=(5, 1), stride=(1, 1), padding=(2, 0), groups=120, bias=False)\n  (se_layer): SEModule(\n    (avg_pool): AdaptiveAvgPool2d(output_size=1)\n    (fc): Sequential(\n      (0): Linear(in_features=240, out_features=60, bias=False)\n      (1): ReLU(inplace=True)\n      (2): Linear(in_features=60, out_features=240, bias=False)\n      (3): Hsigmoid()\n    )\n  )\n  (hsigmoid): Hsigmoid()\n  (conv_bn1): BatchNorm2d(120, eps=1e-05, momentum=0.1, affine=True, track_running_stats=True)\n  (conv_bn2): BatchNorm2d(48, eps=1e-05, momentum=0.1, affine=True, track_running_stats=True)\n  (dw_conv_bn1): BatchNorm2d(120, eps=1e-05, momentum=0.1, affine=True, track_running_stats=True)\n  (dw_conv_bn2): BatchNorm2d(120, eps=1e-05, momentum=0.1, affine=True, track_running_stats=True)\n  (nonlinearity): Hswish()\n)", "parameters": [["conv1.weight", [120, 40, 1, 1]], ["conv2.weight", [48, 240, 1, 1]], ["depth_conv1.weight", [120, 1, 1, 5]], ["depth_conv2.weight", [120, 1, 5, 1]], ["se_layer.fc.0.weight", [60, 240]], ["se_layer.fc.2.weight", [240, 60]], ["conv_bn1.weight", [120]], ["conv_bn1.bias", [120]], ["conv_bn2.weight", [48]], ["conv_bn2.bias", [48]], ["dw_conv_bn1.weight", [120]], ["dw_conv_bn1.bias", [120]], ["dw_conv_bn2.weight", [120]], ["dw_conv_bn2.bias", [120]]], "output_shape": [[32, 48, 2, 2]], "num_parameters": [4800, 11520, 600, 600, 14400, 14400, 120, 120, 48, 48, 120, 120, 120, 120]}, {"name": "fuse_blocks.7", "id": 2233800235656, "class_name": "FuseBlock(\n  (conv1): Conv2d(48, 144, kernel_size=(1, 1), stride=(1, 1), bias=False)\n  (conv2): Conv2d(288, 48, kernel_size=(1, 1), stride=(1, 1), bias=False)\n  (depth_conv1): Conv2d(144, 144, kernel_size=(1, 5), stride=(1, 1), padding=(0, 2), groups=144, bias=False)\n  (depth_conv2): Conv2d(144, 144, kernel_size=(5, 1), stride=(1, 1), padding=(2, 0), groups=144, bias=False)\n  (se_layer): SEModule(\n    (avg_pool): AdaptiveAvgPool2d(output_size=1)\n    (fc): Sequential(\n      (0): Linear(in_features=288, out_features=72, bias=False)\n      (1): ReLU(inplace=True)\n      (2): Linear(in_features=72, out_features=288, bias=False)\n      (3): Hsigmoid()\n    )\n  )\n  (hsigmoid): Hsigmoid()\n  (conv_bn1): BatchNorm2d(144, eps=1e-05, momentum=0.1, affine=True, track_running_stats=True)\n  (conv_bn2): BatchNorm2d(48, eps=1e-05, momentum=0.1, affine=True, track_running_stats=True)\n  (dw_conv_bn1): BatchNorm2d(144, eps=1e-05, momentum=0.1, affine=True, track_running_stats=True)\n  (dw_conv_bn2): BatchNorm2d(144, eps=1e-05, momentum=0.1, affine=True, track_running_stats=True)\n  (nonlinearity): Hswish()\n)", "parameters": [["conv1.weight", [144, 48, 1, 1]], ["conv2.weight", [48, 288, 1, 1]], ["depth_conv1.weight", [144, 1, 1, 5]], ["depth_conv2.weight", [144, 1, 5, 1]], ["se_layer.fc.0.weight", [72, 288]], ["se_layer.fc.2.weight", [288, 72]], ["conv_bn1.weight", [144]], ["conv_bn1.bias", [144]], ["conv_bn2.weight", [48]], ["conv_bn2.bias", [48]], ["dw_conv_bn1.weight", [144]], ["dw_conv_bn1.bias", [144]], ["dw_conv_bn2.weight", [144]], ["dw_conv_bn2.bias", [144]]], "output_shape": [[32, 48, 2, 2]], "num_parameters": [6912, 13824, 720, 720, 20736, 20736, 144, 144, 48, 48, 144, 144, 144, 144]}, {"name": "fuse_blocks.8", "id": 2233800300488, "class_name": "FuseBlock(\n  (conv1): Conv2d(48, 288, kernel_size=(1, 1), stride=(1, 1), bias=False)\n  (conv2): Conv2d(576, 96, kernel_size=(1, 1), stride=(1, 1), bias=False)\n  (depth_conv1): Conv2d(288, 288, kernel_size=(1, 5), stride=(2, 2), padding=(0, 2), groups=288, bias=False)\n  (depth_conv2): Conv2d(288, 288, kernel_size=(5, 1), stride=(2, 2), padding=(2, 0), groups=288, bias=False)\n  (se_layer): SEModule(\n    (avg_pool): AdaptiveAvgPool2d(output_size=1)\n    (fc): Sequential(\n      (0): Linear(in_features=576, out_features=144, bias=False)\n      (1): ReLU(inplace=True)\n      (2): Linear(in_features=144, out_features=576, bias=False)\n      (3): Hsigmoid()\n    )\n  )\n  (hsigmoid): Hsigmoid()\n  (conv_bn1): BatchNorm2d(288, eps=1e-05, momentum=0.1, affine=True, track_running_stats=True)\n  (conv_bn2): BatchNorm2d(96, eps=1e-05, momentum=0.1, affine=True, track_running_stats=True)\n  (dw_conv_bn1): BatchNorm2d(288, eps=1e-05, momentum=0.1, affine=True, track_running_stats=True)\n  (dw_conv_bn2): BatchNorm2d(288, eps=1e-05, momentum=0.1, affine=True, track_running_stats=True)\n  (nonlinearity): Hswish()\n)", "parameters": [["conv1.weight", [288, 48, 1, 1]], ["conv2.weight", [96, 576, 1, 1]], ["depth_conv1.weight", [288, 1, 1, 5]], ["depth_conv2.weight", [288, 1, 5, 1]], ["se_layer.fc.0.weight", [144, 576]], ["se_layer.fc.2.weight", [576, 144]], ["conv_bn1.weight", [288]], ["conv_bn1.bias", [288]], ["conv_bn2.weight", [96]], ["conv_bn2.bias", [96]], ["dw_conv_bn1.weight", [288]], ["dw_conv_bn1.bias", [288]], ["dw_conv_bn2.weight", [288]], ["dw_conv_bn2.bias", [288]]], "output_shape": [[32, 96, 1, 1]], "num_parameters": [13824, 55296, 1440, 1440, 82944, 82944, 288, 288, 96, 96, 288, 288, 288, 288]}, {"name": "fuse_blocks.9", "id": 2233800109384, "class_name": "FuseBlock(\n  (conv1): Conv2d(96, 576, kernel_size=(1, 1), stride=(1, 1), bias=False)\n  (conv2): Conv2d(1152, 96, kernel_size=(1, 1), stride=(1, 1), bias=False)\n  (depth_conv1): Conv2d(576, 576, kernel_size=(1, 5), stride=(1, 1), padding=(0, 2), groups=576, bias=False)\n  (depth_conv2): Conv2d(576, 576, kernel_size=(5, 1), stride=(1, 1), padding=(2, 0), groups=576, bias=False)\n  (se_layer): SEModule(\n    (avg_pool): AdaptiveAvgPool2d(output_size=1)\n    (fc): Sequential(\n      (0): Linear(in_features=1152, out_features=288, bias=False)\n      (1): ReLU(inplace=True)\n      (2): Linear(in_features=288, out_features=1152, bias=False)\n      (3): Hsigmoid()\n    )\n  )\n  (hsigmoid): Hsigmoid()\n  (conv_bn1): BatchNorm2d(576, eps=1e-05, momentum=0.1, affine=True, track_running_stats=True)\n  (conv_bn2): BatchNorm2d(96, eps=1e-05, momentum=0.1, affine=True, track_running_stats=True)\n  (dw_conv_bn1): BatchNorm2d(576, eps=1e-05, momentum=0.1, affine=True, track_running_stats=True)\n  (dw_conv_bn2): BatchNorm2d(576, eps=1e-05, momentum=0.1, affine=True, track_running_stats=True)\n  (nonlinearity): Hswish()\n)", "parameters": [["conv1.weight", [576, 96, 1, 1]], ["conv2.weight", [96, 1152, 1, 1]], ["depth_conv1.weight", [576, 1, 1, 5]], ["depth_conv2.weight", [576, 1, 5, 1]], ["se_layer.fc.0.weight", [288, 1152]], ["se_layer.fc.2.weight", [1152, 288]], ["conv_bn1.weight", [576]], ["conv_bn1.bias", [576]], ["conv_bn2.weight", [96]], ["conv_bn2.bias", [96]], ["dw_conv_bn1.weight", [576]], ["dw_conv_bn1.bias", [576]], ["dw_conv_bn2.weight", [576]], ["dw_conv_bn2.bias", [576]]], "output_shape": [[32, 96, 1, 1]], "num_parameters": [55296, 110592, 2880, 2880, 331776, 331776, 576, 576, 96, 96, 576, 576, 576, 576]}, {"name": "fuse_blocks.10", "id": 2233800434824, "class_name": "FuseBlock(\n  (conv1): Conv2d(96, 576, kernel_size=(1, 1), stride=(1, 1), bias=False)\n  (conv2): Conv2d(1152, 96, kernel_size=(1, 1), stride=(1, 1), bias=False)\n  (depth_conv1): Conv2d(576, 576, kernel_size=(1, 5), stride=(1, 1), padding=(0, 2), groups=576, bias=False)\n  (depth_conv2): Conv2d(576, 576, kernel_size=(5, 1), stride=(1, 1), padding=(2, 0), groups=576, bias=False)\n  (se_layer): SEModule(\n    (avg_pool): AdaptiveAvgPool2d(output_size=1)\n    (fc): Sequential(\n      (0): Linear(in_features=1152, out_features=288, bias=False)\n      (1): ReLU(inplace=True)\n      (2): Linear(in_features=288, out_features=1152, bias=False)\n      (3): Hsigmoid()\n    )\n  )\n  (hsigmoid): Hsigmoid()\n  (conv_bn1): BatchNorm2d(576, eps=1e-05, momentum=0.1, affine=True, track_running_stats=True)\n  (conv_bn2): BatchNorm2d(96, eps=1e-05, momentum=0.1, affine=True, track_running_stats=True)\n  (dw_conv_bn1): BatchNorm2d(576, eps=1e-05, momentum=0.1, affine=True, track_running_stats=True)\n  (dw_conv_bn2): BatchNorm2d(576, eps=1e-05, momentum=0.1, affine=True, track_running_stats=True)\n  (nonlinearity): Hswish()\n)", "parameters": [["conv1.weight", [576, 96, 1, 1]], ["conv2.weight", [96, 1152, 1, 1]], ["depth_conv1.weight", [576, 1, 1, 5]], ["depth_conv2.weight", [576, 1, 5, 1]], ["se_layer.fc.0.weight", [288, 1152]], ["se_layer.fc.2.weight", [1152, 288]], ["conv_bn1.weight", [576]], ["conv_bn1.bias", [576]], 
…
